model.pth (torch, 4959 bytes, 4 tensors)

conv.0.weight f4 [6, 3, 3, 3]
000000 34 c5 0c 3d 0f f8 28 bd a7 d7 e5 3c f6 fe 5c 3d
       0.034367755 -0.041252192 0.028056933 0.053954087
000010 e0 71 0a be 42 33 3b bb 6f ca 42 3c 70 98 af 3d
       -0.13520002 -0.0028564488 0.011889084 0.08573997
000020 97 24 83 bc aa 99 d5 bc 41 e3 b1 3a 5e 17 9c ba
       -0.016008658 -0.02607425 0.0013571755 -0.001190882
000030 17 05 4b 3d 03 9f a2 bd af e5 c2 bc dc ce 17 3d
       0.0495654 -0.07940485 -0.023791162 0.03706251
000040 f3 e0 20 3d 25 f5 cc 3b f2 24 87 bc 8f 8f f2 3a
       0.03927703 0.0062548094 -0.01649711 0.0018505919
000050 c3 8b 39 3c fc ee 62 3b 66 34 1f bd e0 3e 28 bc
       0.011324826 0.003462731 -0.03886833 -0.010268897
000060 83 3a c2 3c 97 87 e3 3c 8f 89 4c bb cc 3a 3b 3d
       0.023709541 0.027774615 -0.003120992 0.04571037
000070 98 8f 6e bd 31 35 eb 3c 5b 52 96 bd 63 39 f0 3c
       -0.05824241 0.028711887 -0.07339927 0.02932424
000080 0d 1d f7 3c d3 2e 89 3a da 23 34 3d 20 a7 ef bc
       0.03016522 0.0010466225 0.043979503 -0.029254496
000090 8a 1b 27 3e ba bb 84 bc 3c 28 c0 3b c4 bc fe bd
       0.16319099 -0.016202796 0.0058641713 -0.12438348
0000a0 66 5a 22 bd fa 75 71 3c fc 09 32 3d ad c3 54 bd
       -0.039636992 0.0147376 0.043466553 -0.051944423
0000b0 cb 2f 32 3c ab 30 1d 3e 54 dd e9 bc 6d ed 23 3c
       0.010875653 0.15350597 -0.02854792 0.010005337
0000c0 04 9a 4d bc b5 bb d1 bd 96 30 d8 ba e2 3a 62 bc
       -0.012548927 -0.102408804 -0.0016493972 -0.013807984
0000d0 67 bf 23 bd 92 69 05 3d 3c 65 fe 3d 25 4d f1 3c
       -0.039977457 0.032571383 0.12421653 0.02945573
0000e0 f7 97 0e bb 3f c3 81 bd ab 2d b0 bd 5a 24 1a 3c
       -0.0021758059 -0.06336068 -0.086024605 0.009408081
0000f0 9e 82 d3 bd 29 3e 35 3d c9 37 97 3d a0 c5 bb bb
       -0.103276476 0.044248734 0.07383687 -0.005730346
000100 f8 ae 89 bd 77 98 77 3d 87 41 9d 3c 29 9f a0 3c
       -0.06722826 0.060448136 0.019196285 0.019607143
000110 be ae ef bc cd 92 59 be 88 21 32 3e 5e ef ce 3a
       -0.029258128 -0.21247406 0.17395604 0.001578789
000120 6b ea c4 bc fb 42 2d 3d 36 53 39 bd 75 5c 30 bd
       -0.02403756 0.042300206 -0.04524537 -0.043056924
000130 1a cd c4 3c 10 4d 6e 3c 05 69 f0 be 6d ce 59 3e
       0.024023581 0.01454474 -0.46955124 0.21270151
000140 64 e8 c0 3a 3a b6 e9 bc 16 a6 f0 3c 47 f3 1b 3c
       0.0014717695 -0.028529275 0.029376071 0.009518451
000150 e2 d8 13 3d f4 0a a4 bd b0 2b 34 bd b7 a9 85 bd
       0.036095507 -0.08009902 -0.043986976 -0.06526511
000160 2f c9 eb 3d 7a d8 01 3d 58 48 c0 3d dc 7c 7f bd
       0.11512982 0.03170059 0.093887985 -0.062374935
000170 80 ac d0 3c e0 9f 9f bd d6 ab 18 bd 6c 05 f7 3c
       0.02547288 -0.077941656 -0.03727325 0.030153953
000180 01 58 28 be ae c1 7a 3e d7 4d 39 bd 1e 77 84 bc
       -0.16439821 0.24487945 -0.04524025 -0.01617008
000190 48 e4 3c 3d ee 50 a8 bc c6 1b a0 bb 70 87 08 3d
       0.046116143 -0.020546403 -0.0048861234 0.03333229
0001a0 72 10 32 3b 08 35 7e be 0b 6c 52 3e 19 aa 48 bd
       0.0027170447 -0.24824917 0.20549028 -0.048990343
0001b0 eb 74 68 3c d9 e6 61 3d 6d 67 92 3d 11 9d fe 3d
       0.014188032 0.055151794 0.07148633 0.12432302
0001c0 32 e0 b4 be 45 9c f0 bd 61 8f 06 3d bd f6 b5 3d
       -0.35327297 -0.11748556 0.03285158 0.08884952
0001d0 12 e5 8c 3d ba 9f 8d 3d 62 e1 f9 bc a1 b1 48 bc
       0.06879629 0.06915231 -0.030502979 -0.012249381
0001e0 9c 40 81 3d da 79 04 bf 74 05 98 3c d6 9a ae 3d
       0.063111514 -0.5174843 0.018557288 0.08525626
0001f0 ca 7d 49 3e c6 43 b0 bc bb 92 0d bd 2f 02 8d 3b
       0.19676891 -0.021516692 -0.03456376 0.004303239
000200 7e 73 04 bd c1 4a a2 3d cd be bf be 9b 4a 47 3c
       -0.032336704 0.079244144 -0.37450257 0.012163783
000210 cd 1b 4c 3d ea c3 8b 3d d8 38 ed 3b 30 3d be 3d
       0.0498312 0.06824477 0.0072394423 0.09289014
000220 d5 26 05 3e e9 7e 90 3c 40 a8 04 3e 58 01 bb be
       0.13003094 0.01763864 0.12954807 -0.36524463
000230 12 35 d7 bd 68 61 db 3d df 4d e7 bd ca 8f e9 3d
       -0.10508169 0.10711938 -0.112941496 0.11404379
000240 0e 12 0a 3d e8 db ea 3d 7d de 43 3d e0 9b 1e 3d
       0.033708625 0.11467725 0.047819603 0.038722873
000250 8b 5e b8 be 67 71 33 bd ff be f2 bc 70 ed 16 3e
       -0.3600963 -0.04380932 -0.02963209 0.14739013
000260 4b 31 1c bd 26 68 0e bd f6 eb 19 3e 58 58 c5 bc
       -0.038132947 -0.034767292 0.15031418 -0.024089977
000270 72 a0 95 3c af 3f 91 be f3 90 bf bc 28 2b 25 bb
       0.018264983 -0.283689 -0.023384547 -0.0025202725
000280 91 79 2b bc a5 ae 02 bd
       -0.010465995 -0.031904835

conv.0.bias f4 [6]
000000 f3 85 e3 c0 4c b9 de c0 33 e9 88 40 05 07 86 c0
       -7.110101 -6.9601192 4.2784667 -4.188357
000010 ce c2 da 3f 36 29 19 40
       1.70907 2.3931403

conv.2.weight f4 [12, 6, 3, 3]
000000 2b c8 15 3e 1d 9c 5d 3f a8 34 97 be e7 6d 9b be
       0.1462714 0.86566335 -0.2953236 -0.30357286
000010 e2 b6 27 bf e1 13 8e be 5b 91 17 3e c6 e6 df 3e
       -0.6551343 -0.2774954 0.14801542 0.43730754
000020 20 c9 00 3e b5 b2 32 3d 70 6a 6d 3d 47 5e 14 3e
       0.12576723 0.04362746 0.057962835 0.14489089
000030 9e b1 f3 3d c9 ed 25 be 4d ac 31 3e 41 1f ef 3c
       0.11899112 -0.16203989 0.17350884 0.029189708
000040 7e e0 96 be 2a 21 31 bd a6 38 c3 3d 27 18 b8 be
       -0.2946815 -0.04324452 0.09532289 -0.35955927
000050 e0 ea c6 3e d0 aa 80 3d 1c 96 c5 3d a0 d1 c9 bd
       0.3885107 0.0628258 0.09647772 -0.09854436
000060 63 a0 0f 3c 34 9f 5c bd 80 6b 22 bd 73 30 af bd
       0.0087662665 -0.053862765 -0.0396533 -0.08554163
000070 34 9a 04 3f a6 93 dd be 0e b8 16 be 59 79 4a be
       0.51797795 -0.4327671 -0.14718649 -0.19772853
000080 e6 10 37 3e 44 01 f3 3c 75 e9 9e 3d 29 a6 0c bd
       0.1787754 0.02966369 0.07759372 -0.03433815
000090 bf fc 10 bd f2 73 59 be 8b 27 fe 3d d6 35 39 3e
       -0.035397287 -0.21235636 0.12409886 0.18086943
0000a0 07 b9 d6 3d 09 19 20 3e ae f5 d3 bd ef 89 45 be
       0.1048451 0.1563455 -0.10349594 -0.19290899
0000b0 eb a7 8c 3d 66 63 b5 bc 85 4d aa bd 29 9c 28 3c
       0.06867965 -0.022142123 -0.08315567 0.010291138
0000c0 fc 7d 0a be 81 4d e9 be 9a d0 13 3d fd 83 46 3e
       -0.13524622 -0.45566943 0.03608761 0.19386287
0000d0 b6 f1 9e 3e 70 fe c9 bd 1e 38 ad 3e e4 eb bb 3e
       0.31043786 -0.09862983 0.33831877 0.36703408
0000e0 40 8b 8b 3e 3f ae 86 3e 8e 38 c5 bf c9 6e 99 3e
       0.27254677 0.26304814 -1.5407884 0.29967335
0000f0 8f 07 a5 bd 5b 93 ae 3e d3 5a ec 3e 7b 34 a9 bb
       -0.08058082 0.34096798 0.46163043 -0.005163727
000100 72 91 a7 3d 55 7d 8a 3d 1b 11 4b 3d 31 55 2c 3d
       0.08182038 0.067621864 0.04957686 0.042073432
000110 9d 7a 25 bd 03 96 43 3e 41 ed d0 be 8e 9b 44 3d
       -0.040400136 0.19100194 -0.4080601 0.04799991
000120 e8 25 ae bc 8c 5c 02 3e d7 c7 59 be 0d 7a 93 3d
       -0.02125831 0.12730616 -0.21267639 0.07201014
000130 d1 d3 1c bb a7 a4 85 3d f6 27 8b 3d 2b d4 ac bc
       -0.0023929963 0.065255456 0.06794731 -0.021097263
000140 89 57 84 bd 01 d4 85 bd c4 93 d0 3d 40 56 28 be
       -0.064620085 -0.06534577 0.10184434 -0.16439152
000150 ee 92 bf bd 9a e8 81 be 96 68 8e 3c 6d 81 6b 3b
       -0.093541965 -0.25372773 0.017383855 0.0035935298
000160 21 37 f6 3c f4 dd 50 3d 9b b9 98 bc 40 d6 27 be
       0.030055584 0.05099292 -0.018643191 -0.16390324
000170 5a dd 3b 3c 81 bf de bd 83 9e 22 3f 9c 66 1b be
       0.011466349 -0.1087637 0.6352312 -0.15175861
000180 e3 05 13 3a 91 de 11 be d9 c3 a3 bd 9d a0 52 bd
       0.0005608482 -0.14245059 -0.07996339 -0.051422704
000190 bd 05 4a 3d e9 e7 0d 3c f2 b7 fd bc 24 b3 e4 be
       0.04932188 0.008661249 -0.030971501 -0.44667923
0001a0 0d 08 0e 3d 73 fc 12 3e 1b 54 78 3e a1 4d 3e 3d
       0.034675647 0.14354114 0.24250834 0.04646075
0001b0 aa 18 81 be 16 15 fe 3c ce a9 c7 be 8b df 0b be
       -0.2521413 0.031015914 -0.38996738 -0.13659494
0001c0 69 45 9a 3e 24 87 32 be 72 56 3d 3e 5f 71 3b bd
       0.3013108 -0.17434365 0.18490008 -0.045762416
0001d0 27 06 ac bd 09 16 d4 3b ef 88 20 3e b4 52 d5 3e
       -0.08399611 0.0064723534 0.15677236 0.4166466
0001e0 84 fa 3d 3d fc cb 8b be 2d 69 7d be 45 f6 f0 3d
       0.04638149 -0.27304065 -0.24747153 0.11765722
0001f0 f8 42 4a bc 87 9f f1 3e bb 5c e8 3d ed 93 b9 be
       -0.012345068 0.47192022 0.11345812 -0.3624567
000200 f8 67 a5 3e 8f f8 78 3d 09 fe 8a bc 4e 88 46 bd
       0.32305884 0.06078392 -0.016966837 -0.048469834
000210 8b 46 29 3c ae 61 03 3d 35 3c 34 3c 84 c8 ee bd
       0.01033176 0.032075576 0.011000683 -0.11659339
000220 d1 69 05 3f 43 ee a9 be c8 cf d6 bd 64 74 85 bd
       0.5211459 -0.33189592 -0.1048885 -0.065163404
000230 e2 7e 23 3c 30 53 0a bc 91 36 c2 bc fb ac 85 3c
       0.009978982 -0.008442685 -0.02370766 0.016317835
000240 c0 37 3a 3e ea bb 5a 3e fb 16 8f 3d d5 8e 6e bd
       0.1818533 0.21360746 0.06986805 -0.058241684
000250 7d 95 ed be 28 0d f4 3d ef 23 46 3c 2d 07 ad bc
       -0.46403113 0.11916572 0.012093528 -0.021121586
000260 98 ed b2 3d 47 d2 e5 bd 21 14 47 be 6d a7 f0 3c
       0.08736724 -0.11221748 -0.19441272 0.02937671
000270 b6 97 0d 3e 94 de fe 3c 87 fe 60 3c f8 aa ca bd
       0.13827404 0.031111993 0.013732559 -0.09895891
000280 75 15 c5 bd f0 ae bf bc 11 36 a4 3d bf 80 83 be
       -0.09623233 -0.023398846 0.08018125 -0.25684163
000290 88 af 88 be 83 c4 be 3e e4 77 44 bf 6c 51 30 3f
       -0.2669642 0.37259302 -0.7674544 0.6887424
0002a0 6d 45 07 3e e3 82 71 be 91 3e 99 3e 64 cb 5f 3b
       0.13210078 -0.23585086 0.29930547 0.003414833
0002b0 d3 36 cf 3c 21 2a d8 3e 9e 21 eb bc d9 e1 96 3d
       0.025294697 0.42219642 -0.028702553 0.07367296
0002c0 58 6b 15 bf 52 1b 3d 3e b9 8f 3a be 09 40 20 3f
       -0.5836692 0.18467453 -0.18218888 0.6259771
0002d0 7a 45 ac 3c cd e3 d3 3d e4 4e 6b be a7 f8 13 3c
       0.021029223 0.10346184 -0.22979313 0.009031451
0002e0 a7 2c 45 3d 21 1f 44 bd 95 9c 94 3d a1 92 3d bc
       0.048138287 -0.04788125 0.07256428 -0.011570604
0002f0 68 e4 6b 3d 40 c0 b7 bd 6c fa 5d 3d b1 2f 51 bc
       0.057590872 -0.08972216 0.0541939 -0.012767718
000300 15 c3 61 bd 89 a7 0e be a3 22 dd bd e4 ef a5 3b
       -0.055117685 -0.13931097 -0.10797622 0.0050639976
000310 c1 52 a9 bd 4f d5 83 3c 2a 52 66 3d b6 87 9d 3e
       -0.08267737 0.016092924 0.0562307 0.30767602
000320 66 a6 a0 3d 84 0f 8c bd 35 f5 13 be ce a6 7e be
       0.07844238 -0.06838897 -0.14449008 -0.24868318
000330 b7 b8 2c bd b8 33 40 3e 9b 7c e1 bd 2d 06 09 bd
       -0.042168345 0.18769729 -0.11010095 -0.033453155
000340 43 f9 2f be 45 4a 3c 3d cb 7d a3 bd 3d 91 b0 3e
       -0.1718493 0.045969266 -0.079829775 0.34485808
000350 a9 6f 96 3a b2 16 15 3d f5 04 a1 be 81 f8 fe 3d
       0.0011477369 0.036398597 -0.31449094 0.12449742
000360 83 a3 13 3e 62 ae 5f 3f df 44 6c be 5f 23 9a be
       0.14417844 0.8737546 -0.23073147 -0.3010511
000370 1b 3d 3e bf 52 b4 82 be cc 4d 2a 3e ef 0e c5 3e
       -0.7431199 -0.25528198 0.1663124 0.38487956
000380 91 30 e2 3d 81 8e fa 3b 44 2e 31 bd e6 cf a1 3d
       0.110444196 0.0076463823 -0.043257013 0.079009816
000390 05 30 85 3d 01 d5 85 be 51 7a 1f 3e cd d0 a4 bc
       0.065032996 -0.26139072 0.15574004 -0.020119095
0003a0 2c 01 8d be d4 85 2a 3e 62 0c 9c 3d d2 56 b4 be
       -0.27539957 0.16652614 0.07619549 -0.3522249
0003b0 9d 5d f1 3e a4 b1 2a 3d 38 cc 98 3d a3 bf ca bd
       0.47141734 0.041673318 0.07460827 -0.09899833
0003c0 98 fb 79 bc 3a f4 ac bd fc 22 84 bd b2 52 88 bd
       -0.0152577385 -0.0844502 -0.06451985 -0.06656398
0003d0 7b d3 00 3f 77 52 fd be 37 16 e3 bd 09 a3 1f be
       0.50322694 -0.49476978 -0.110882215 -0.15589537
0003e0 50 41 34 3e 9d f6 5a 3d 4a a0 dc 3d 74 c6 57 3b
       0.1760304 0.053457845 0.1077276 0.0032924684
0003f0 3f 7b 8b bd c6 1f 64 be 82 4e b8 3d 51 ba 24 3e
       -0.06810617 -0.22277746 0.08999349 0.16086699

conv.2.bias f4 [12]
000000 27 a0 73 b5 c8 e5 34 b9 a3 79 81 bc 60 45 f6 bb
       -9.0757607e-07 -0.00017251738 -0.015805071 -0.0075155944
000010 be 96 0a b9 7f 48 21 37 f6 6c 93 ba c3 e0 9a b8
       -0.00013216861 9.613227e-06 -0.0011247683 -7.3851574e-05
000020 9b a0 be 36 d8 2e 1d b9 b6 5e 71 bc 2e 58 47 ba
       5.681138e-06 -0.00014990137 -0.0147320535 -0.00076043874
